…
8080/"},"executionInfo":{"elapsed":32,"status":"ok","timestamp":1756819441489,"user":{"displayName":"DINAGARAN JOHNY S","userId":"15689450749948093800"},"user_tz":-330},"id":"Y7G0BlqR_jdH","outputId":"dda79d43-7bbd-498d-cabd-1af540b90672"},"outputs":[{"name":"stdout","output_type":"stream","text":["Name: Dinagaran Johny S\n","Register Number:  212223220020\n","----------------------------------------------------------------\n","        Layer (type)               Output Shape         Param #\n","================================================================\n","            Conv2d-1           [-1, 32, 28, 28]             320\n","         MaxPool2d-2           [-1, 32, 14, 14]               0\n","            Conv2d-3           [-1, 64, 14, 14]          18,496\n","         MaxPool2d-4             [-1, 64, 7, 7]               0\n","            Conv2d-5            [-1, 128, 7, 7]          73,856\n","         MaxPool2d-6            [-1, 128, 3, 3]               0\n","            Linear-7                  [-1, 128]         147,584\n","            Linear-8                   [-1, 64]           8,256\n","            Linear-9                   [-1, 10]             650\n","================================================================\n","Total params: 249,162\n","Trainable params: 249,162\n","Non-trainable params: 0\n","----------------------------------------------------------------\n","Input size (MB): 0.00\n","Forward/backward pass size (MB): 0.42\n","Params size (MB): 0.95\n","Estimated Total Size (MB): 1.37\n","------------------------------------------
…
